Current GPU index: 0
---------- Networks initialized -------------
NPI(
  (core): MazeCore(
    (encoder): Sequential(
      (0): Linear(in_features=256, out_features=100, bias=True)
      (1): ReLU()
      (2): Linear(in_features=100, out_features=100, bias=True)
      (3): ReLU()
      (4): Linear(in_features=100, out_features=128, bias=True)
    )
    (pro_embedder): Embedding(8, 10)
  )
  (lstm): LSTM(138, 256, num_layers=2)
  (ter_net): Sequential(
    (0): Linear(in_features=256, out_features=128, bias=True)
    (1): ReLU()
    (2): Linear(in_features=128, out_features=2, bias=True)
  )
  (pro_net): Sequential(
    (0): Linear(in_features=256, out_features=5, bias=True)
    (1): ReLU()
    (2): Linear(in_features=5, out_features=5, bias=True)
  )
  (arg_net_0): Sequential(
    (0): Linear(in_features=256, out_features=22, bias=True)
    (1): ReLU()
    (2): Linear(in_features=22, out_features=22, bias=True)
  )
)
NPI: Total number of parameters : 1.021 M
-----------------------------------------------
Epoch 01 Maze idx 000 Default Step Loss 2.417482, Total Step Loss 0.712736, Term Acc: 0.994737, Prog Acc: 0.105263
Epoch 01 Maze idx 010 Default Step Loss 1.798353, Total Step Loss 0.535103, Term Acc: 0.994505, Prog Acc: 0.236264
Epoch 01 Maze idx 020 Default Step Loss 2.046449, Total Step Loss 0.563225, Term Acc: 0.928571, Prog Acc: 0.500000
…
