Current GPU index: 3
---------- Networks initialized -------------
NPI(
  (core): MazeCore(
    (encoder): Sequential(
      (0): Linear(in_features=256, out_features=100, bias=True)
      (1): ReLU()
      (2): Linear(in_features=100, out_features=100, bias=True)
      (3): ReLU()
      (4): Linear(in_features=100, out_features=128, bias=True)
    )
    (pro_embedder): Embedding(8, 10)
  )
  (lstm): LSTM(138, 256, num_layers=2)
  (ter_net): Sequential(
    (0): Linear(in_features=256, out_features=128, bias=True)
    (1): ReLU()
    (2): Linear(in_features=128, out_features=2, bias=True)
  )
  (pro_net): Sequential(
    (0): Linear(in_features=256, out_features=5, bias=True)
    (1): ReLU()
    (2): Linear(in_features=5, out_features=5, bias=True)
  )
  (arg_net_0): Sequential(
    (0): Linear(in_features=256, out_features=22, bias=True)
    (1): ReLU()
    (2): Linear(in_features=22, out_features=22, bias=True)
  )
)
NPI: Total number of parameters : 1.021 M
-----------------------------------------------
Epoch 01 Maze idx 000 Default Step Loss 2.587138, Total Step Loss 0.718572, Term Acc: 0.991453, Prog Acc: 0.367521
Epoch 01 Maze idx 010 Default Step Loss 2.014735, Total Step Loss 0.571054, Term Acc: 0.992481, Prog Acc: 0.413534
Epoch 01 Maze idx 020 Default Step Loss 1.879658, Total Step Loss 0.541388, Term Acc: 0.983871, Prog Acc: 0.483871
…
